model/dcflow_state_dict_ep30_200k_normed.pth (torch_old, 451963 bytes, 8 tensors)

dconv_down1.0.weight f4 [64, 3, 3, 3]
-0.098033 -0.061877098 -0.18409242 0.100702204 -0.008225602 0.12691653 0.12623827 -0.018455086
0.0009258545 0.027308276 -0.14883868 0.12985107 0.1704519 -0.011507181 -0.19097862 -0.05541026
0.15393242 -0.043105196 -0.07988846 0.14989915 0.10567418 0.059538588 -0.09227891 0.039319117
-0.1570883 0.006298713 -0.020935316 0.17660469 0.0659101 -0.09507432 0.026127793 0.055940785
0.13905475 -0.03975494 -0.04431613 -0.00022175186 0.21005313 0.13169529 -0.06695636 -0.1334328
-0.01883551 0.10463918 -0.08937431 -0.021231666 -0.19528906 -0.0009955709 -0.042266887 0.09944646
0.16360444 -0.08518146 -0.10913118 0.09015398 -0.13413298 -0.07608449 0.15957513 0.075952716
-0.035059176 -0.037750006 -0.07130338 0.03697902 0.12159946 0.17781687 -0.0054902085 -0.09819132
0.15194803 -0.013203482 -0.13471352 0.02016304 -0.18517797 -0.03150447 0.12726454 0.10923994
-0.11096061 -0.18257402 -0.08021435 0.020901885 0.045297083 0.14402264 -0.14160301 0.024473986
-0.025111131 0.19264594 0.03599287 -0.0397307 0.09741083 0.114780895 -0.1965828 -0.17792352
0.03685207 -0.11507356 0.22436218 0.11168201 -0.087257504 -0.10740466 -0.09245569 0.039398503
0.17831498 -0.11453804 -0.13694099 0.06822484 -0.0679648 0.10965783 -0.14682499 -0.12229883
0.1576932 0.06828368 0.04045711 0.0035380858 -0.04037459 0.1502788 -0.03579057 0.047817793
-0.18425766 0.1653023 -0.155388 -0.025576008 -0.1966631 -0.13821326 -0.16383035 0.13419507
-0.0013184797 0.1597168 0.12480307 -0.07078843 0.026998706 0.004654148 0.12695801 0.054419708
0.043660514 0.08934735 0.032175995 -0.20648783 -0.00047339973 0.09704328 -0.08778179 0.15964381
-0.14010206 0.01309123 -0.06926887 -0.06939328 0.09567328 0.070895925 0.058650035 0.03230301
0.09868301 0.023063833 0.18899603 -0.0033273702 -0.04435508 -0.10328642 -0.1797902 0.028924301
0.18083706 -0.035049513 0.05076327 0.0023155054 -0.15600933 -0.18673532 0.18232864 -0.049321115
-0.027043698 -0.07408453 0.12604405 -0.11384471 0.10459012 -0.10739455 0.044821545 -0.16023299
-0.07643325 0.104282536 -0.060954936 -0.012407336 -0.1969545 -0.080405876 0.1882581 -0.09590156
-0.0973595 0.03800987 -0.0090922145 -0.002608252 -0.13677181 -0.16186272 0.19574708 0.1226556
0.09371515 -0.13580807 0.17536296 0.14721827 -0.14498837 0.061755374 -0.056458935 -0.008840039
-0.21192971 0.12664102 0.16767235 -0.049987473 0.059350524 -0.040505324 0.039171416 0.16319893
-0.15061824 -0.09191038 -0.04576015 -0.18109028 0.07030294 0.12110118 -0.15350972 -0.06329959
-0.105628505 0.061160956 0.14104144 0.13204867 0.0659294 0.075174525 0.08997253 -0.1545051
-0.13077657 -0.029407019 0.05957227 -0.035277016 0.106239654 -0.11830745 -0.12268196 -0.020067332
-0.07048037 0.17066394 0.06817547 0.11441593 -0.027812311 -0.14436337 0.10571722 0.21448578
0.060096033 -0.050036747 -0.1576466 -0.18435681 0.075672075 -0.10171364 0.036145147 0.01697505
0.103955686 -0.062954485 0.11156838 0.0017192712 0.0036101446 -0.029131444 -0.053657826 0.016023973
0.08159454 0.01640718 -0.0036905538 -0.06222861 0.062729806 0.018102411 0.015221806 -0.040982127
00000000: 87c5 c8bd d772 7dbd b982 3cbe f53c ce3d
00000010: adc4 06bc 68f6 013e 9b44 013e 1f2f 97bc
00000020: 0bb5 723a 9bb5 df3c 2b69 18be aef7 043e
00000030: f18a 2e3e 9e88 3cbc e68f 43be def5 62bd
00000040: 76a0 1d3e 138f 30bd 909c a3bd 2a7f 193e
00000050: b46b d83d bcde 733d bafc bcbd 150d 213d
00000060: c1db 20be 6f65 ce3b 8a80 abbc dcd7 343e
00000070: e0fb 863d 53b6 c2bd f409 d63c 2a22 653d
00000080: 5e64 0e3e 13d6 22bd d584 35bd 1086 68b9
00000090: 2b18 573e 21db 063e 6b20 89bd 9ca2 08be
000000a0: ed4c 9abc 114d d63d e109 b7bd 08ee adbc
000000b0: dbf9 47be d17d 82ba 0b20 2dbd 96aa cb3d
000000c0: ec87 273e 9e73 aebd 2b80 dfbd a6a2 b83d
000000d0: 285a 09be 2fd2 9bbd aa67 233e 198d 9b3d
000000e0: 369a 0fbd c09f 1abd 8207 92bd 5077 173d
000000f0: 2309 f93d a015 363e 35e7 b3bb 8818 c9bd
00000100: 4498 1b3e 6b53 58bc 57f2 09be f62c a53c
00000110: 4b9f 3dbe d50a 01bd a351 023e 31b9 df3d
00000120: 513f e3bd aff4 3abe 6c47 a4bd 6e3a ab3c
00000130: 6f89 393d ac7a 133e 6100 11be ab7d c83c
00000140: dcb5 cdbc fa44 453e 426d 133d a9bc 22bd
00000150: 547f c73d 3f12 eb3d 004d 49be 9531 36be
00000160: 32f2 163d b0ab ebbd 33bf 653e 8ab9 e43d
00000170: 10b4 b2bd f9f6 dbbd 6959 bdbd 5360 213d
00000180: 3498 363e eb92 eabd 423a 0cbe 77b9 8b3d
00000190: 2131 8bbd 4994 e03d 4a59 16be cf77 fabd
000001a0: 547a 213e 50d8 8b3d 5bb6 253d 3bdf 673b
000001b0: d35f 25bd b0e2 193e 2299 12bd 97dc 433d
000001c0: 0aae 3cbe 0245 293e 081e 1fbe c784 d1bc
000001d0: 0d62 49be c787 0dbe 25c3 27be 6f6a 093e
000001e0: d6d0 acba cd8c 233e c198 ff3d 86f9 90bd
000001f0: 642c dd3c d381 983b 4801 023e 33e7 5e3d
00000200: 5ed5 323d befb b63d faca 033d 8c71 53be
00000210: a332 f8b9 a1be c63d f0c6 b3bd ab79 233e
00000220: ea76 0fbe 997c 563c d6dc 8dbd 101e 8ebd
00000230: 5af0 c33d e231 913d 053b 703d 2950 043d
00000240: 511a ca3d 5df0 bc3c 2d88 413e 0210 5abb
00000250: acad 35bd d587 d3bd ec1a 38be a8f2 ec3c
00000260: 5a2d 393e 1490 0fbd 26ed 4f3d bcbf 173b
00000270: e9c0 1fbe 8b37 3fbe 5cb4 3a3e f004 4abd
00000280: bf8a ddbc a1b9 97bd b111 013e 6a27 e9bd
00000290: 5833 d63d adf1 dbbd cc96 373d 1e14 24be
000002a0: 0989 9cbd 1592 d53d e2ab 79bd 2448 4bbc
000002b0: 71ae 49be d6ab a4bd bbc6 403e 0968 c4bd
000002c0: 6b64 c7bd 3db0 1b3d 83f7 14bc 35ef 2abb
000002d0: e90d 0cbe 57bf 25be ec71 483e dc32 fb3d
000002e0: bbed bf3d 4511 0bbe 5992 333e 63c0 163e
000002f0: d577 14be 34f3 7c3d 7c41 67bd d0d5 10bc
00000300: 1a04 59be 2fae 013e 4db2 2b3e aabf 4cbd
00000310: 8919 733d e9e8 25bd 3572 203d 9f1d 273e
00000320: ab3b 1abe 823b bcbd ff6e 3bbd bb6f 39be
00000330: fdfa 8f3d e503 f83d a731 1dbe 37a3 81bd
00000340: c253 d8bd e983 7a3d 2b6d 103e c437 073e
00000350: fe05 873d 1af5 993d 8543 b83d 9636 1ebe
00000360: 4bea 05be fde6 f0bc 0d02 743d a27e 10bd
00000370: 2d94 d93d 2d4b f2bd ae40 fbbd 3f64 a4bc
00000380: 0358 90bd 87c2 2e3e 959f 8b3d e652 ea3d
00000390: a5d6 e3bc fed3 13be 4582 d83d 29a2 5b3e
000003a0: 4227 763d 55f3 4cbd 1c6e 21be 08c8 3cbe
000003b0: f6f9 9a3d 3e4f d0bd ef0c 143d 430f 8b3c
000003c0: b8e6 d43d 48ee 80bd f67d e43d 2b59 e13a
000003d0: 2d98 6c3b 11a5 eebc 4fc8 5bbd b544 833c
000003e0: 0a1b a73d 5a68 863c 38dd 71bb 6de3 7ebd
000003f0: 7c78 803d 824b 943c e264 793c e0dc 27bd

dconv_down1.0.bias f4 [64]
0.07990878 -0.06127219 -0.046575554 -0.09055971 -0.12881084 -0.022362148 0.04080352 -0.016428856
0.016953342 0.0043225475 -0.010791637 0.03641467 -0.013873073 0.028178412 0.04364164 0.02598994
-0.089371786 -0.011312446 0.0896508 -0.08425143 -0.016537732 -0.07416756 -0.033349052 0.11983826
0.088314585 -0.06883676 -0.046533454 0.06385471 0.02384129 -7.0253465e-09 -0.02461248 0.030969573
-0.0757329 0.038913354 -0.095482014 0.033585716 0.0035220343 0.08654855 -0.10409737 -0.0046375035
0.03233277 0.04804164 0.0053763785 0.09110492 0.0130492225 -0.016139045 0.00930883 0.04630655
0.02289901 -0.12404916 0.03542701 -0.009246974 0.06958296 0.077524304 0.02580084 0.053358376
0.055540055 0.10409952 -0.04593724 -0.14632112 0.043342326 0.020516576 0.023506222 0.12897128
00000000: 37a7 a33d 8cf8 7abd 02c6 3ebd 5f77 b9bd
00000010: fde6 03be d330 b7bc 9721 273d cf95 86bc
00000020: bce1 8a3c 28a4 8d3b 68cf 30bc 8d27 153d
00000030: e34b 63bc 6ad6 e63c 94c1 323d dbe8 d43c
00000040: 8e08 b7bd d657 39bc d79a b73d 048c acbd
00000050: 237a 87bc 29e5 97bd 0499 08bd c36d f53d
00000060: 47de b43d 4afa 8cbd dd99 3ebd 42c6 823d
00000070: cf4e c33c 9a63 f1b1 1da0 c9bc e7b3 fd3c
00000080: da19 9bbd 9c63 1f3d 138c c3bd 2d91 093d
00000090: eed1 663b 5e40 b13d 0031 d5bd 33f6 97bb
000000a0: 5e6f 043d 50c7 443d 552c b03b 3795 ba3d
000000b0: 68cc 553c 0836 84bc 1084 183c f0ab 3d3d
000000c0: b496 bb3c 7c0d febd ea1b 113d 9f80 17bc
000000d0: 8381 8e3d 10c5 9e3d 495c d33c 508e 5a3d
000000e0: f87d 633d 2132 d53d b028 3cbd 34d5 15be
000000f0: b987 313d 6112 a83c 1f90 c03c 0c11 043e

dconv_down2.0.weight f4 [64, 64, 3, 3]
-0.010520955 0.009656159 -0.011291625 0.034618307 -0.018980121 0.06826224 -0.020685222 -0.020126604
-0.040694106 -0.051669847 -0.009073111 0.02207432 -0.013467331 -0.0006239156 -0.013535224 -0.04644494
-0.015650347 -0.051075954 0.022531746 0.042948198 -0.007906631 -0.012094246 0.05503504 -0.001298744
0.039874855 0.0671793 0.07148111 0.0010991812 -0.034012258 0.05473889 -0.013477236 -0.006615658
0.03398952 -0.02886122 -0.057638746 -0.033744622 0.0139351925 0.01708806 -0.032394245 0.008930457
-0.02850269 -0.013430686 0.013689078 0.038123988 0.04076515 0.049494553 0.000690994 0.0075153518
0.01017358 0.006201741 -0.013785646 0.04908374 0.034105346 -0.03930277 0.019133883 0.04420522
0.08255956 -0.04849541 0.045253877 0.024886265 0.048654653 0.00949694 0.041469067 -0.025256025
-0.028967494 0.006362534 -0.02751207 0.03556188 -0.028895443 -0.0007211376 0.001018647 0.043142717
-0.006412242 0.00071390305 0.0637121 0.008189238 -0.06467911 0.05483481 0.017924163 -0.063238874
0.04397111 -0.001932866 -0.0102151 -0.003353704 -0.022278456 -0.014123382 -0.009283894 0.0010384328
-0.010302595 -0.0056356792 -0.0145510435 0.09212407 0.01614044 -0.0076792906 0.056585718 0.034018576
0.060970224 0.055283975 -0.021152027 -0.073576875 0.010484516 -0.03439019 -0.040267777 -0.006554238
0.010027453 -0.114360474 -0.003331224 -0.010738694 0.04249289 0.035626695 -0.024455134 0.024855645
-0.004856457 0.04025996 0.0272338 0.0016667848 0.03878435 -0.0072282474 -0.0022090916 -0.02058022
-0.00019081922 -0.041869443 0.0088032875 0.003931411 -0.033631776 -0.007439266 -0.0018907011 0.02851575
0.019540546 -0.004420966 -0.04750264 0.00032002077 0.009352139 0.0008994183 0.03218919 -0.003635331
0.09492706 0.06540536 -0.012437864 0.049128268 0.009322451 -0.0009777813 0.049829323 0.0035231058
-0.035329077 0.04003962 0.046027042 -0.0035967096 -7.7239465e-06 0.02046442 -0.097398184 -0.08285244
-0.009411719 -0.05144399 -0.0328952 0.0005076829 -0.076801166 0.010303772 -0.0076572844 -0.028789956
-0.016632682 -0.021447508 0.007670554 0.029604075 -0.009695595 -0.012815857 0.03909669 -0.018453343
0.016807897 0.033535674 0.042032104 -0.052249696 -0.038186677 0.0005358554 0.020174 -0.0014629856
0.061101373 0.017917763 0.06272128 0.03085926 0.046687096 -0.0070770993 -0.011038969 0.021170206
-0.018794699 -0.06639932 0.008263515 -0.02428233 -0.036580004 0.0033429372 0.023243997 -0.043599654
0.03358246 0.0045307893 -0.023003438 0.03541283 -0.005879049 -0.0038718884 0.03970797 0.037833396
-0.010853585 0.07692865 -0.02268347 -0.044076875 0.05543463 -0.022423588 -0.07784838 -0.029678293
0.0032730137 -0.03129113 -0.014999564 -0.020161347 0.022736382 -0.051751696 -0.048827283 -0.059620496
0.031433318 0.036506828 0.014907337 0.028353227 0.016255658 0.05942445 -0.0047666393 -0.019352952
-0.07740055 -0.028404666 0.015564212 -0.057833385 0.018324768 0.018551566 0.06827809 0.0035067156
0.08039133 0.07793193 0.011618326 0.038525417 -0.01575322 0.024795678 0.017037058 0.043818213
0.025990628 0.038329292 0.052088514 -0.031729657 0.0010906259 -0.0057708276 0.02412039 -0.05403947
-0.0022230106 0.05591431 0.035228346 0.065059006 0.03197863 -0.053030323 -0.026831264 -0.012320979
00000000: 1560 2cbc de34 1e3c 8200 39bc edcb 0d3d
00000010: 337c 9bbc 13cd 8b3d 0e74 a9bc 8ce0 a4bc
00000020: ddae 26bd c3a3 53bd 63a7 14bc 34d5 b43c
00000030: 15a6 5cbc 448e 23ba d8c2 5dbc 0d3d 3ebd
00000040: 2835 80bc 0535 51bd 7f94 b83c 73ea 2f3d
00000050: d08a 01bc f226 46bc 6c6c 613d 9e3a aaba
00000060: d153 233d 4d95 893d b064 923d 6712 903a
00000070: 7050 0bbd e335 603d a0cf 5cbc 29c8 d8bb
00000080: 9838 0b3d 5e6e ecbc 9b16 6cbd cd37 0abd
00000090: 6f50 643c 42fc 8b3c d4af 04bd 0d51 123c
000000a0: 797e e9bc 610c 5cbc 2848 603c e627 1c3d
000000b0: 5cf9 263d cdba 4a3d d323 353a 5743 f63b
000000c0: 16af 263c f937 cb3b 31dd 61bc 080c 493d
000000d0: 0cb2 0b3d f1fb 20bd a9be 9c3c 8810 353d
000000e0: fd14 a93d 1fa3 46bd 215c 393d 48de cb3c
000000f0: 1a4a 473d 0e99 1b3c 78db 293d b9e5 cebc
00000100: 3d4d edbc ce7c d03b fe60 e1bc 55a9 113d
00000110: 23b6 ecbc ba0a 3dba 1f84 853a 6bb6 303d
00000120: c91d d2bb 3925 3b3a 7d7b 823d 272c 063c
00000130: 7b76 84bd 779a 603d b2d5 923c 6283 81bd
00000140: 0d1b 343d 3958 fdba 3c5d 27bc d1c9 5bbb
00000150: 4f81 b6bc c265 67bc 791b 18bc 061c 883a
00000160: 37cc 28bc 81ab b8bb 8067 6ebc 8bab bc3d
00000170: f538 843c 8fa2 fbbb 6dc6 673d 1057 0b3d
00000180: eabb 793d 7371 623d 0447 adbc 79af 96bd
00000190: 3fc7 2b3c badc 0cbd d3ef 24bd efc4 d6bb
000001a0: 304a 243c d335 eabd aa50 5abb 59f1 2fbc
000001b0: 060d 2e3d 4ced 113d 2256 c8bc 119e cb3c
000001c0: ea22 9fbb a1e7 243d 6b19 df3c 0478 da3a
000001d0: 57dc 1e3d efda ecbb 68c6 10bb d997 a8bc
000001e0: a516 48b9 4b7f 2bbd aa3b 103c 11d3 803b
000001f0: 79c1 09bd 16c5 f3bb 67d1 f7ba dd99 e93c
00000200: 7f13 a03c c0dd 90bb 2192 42bd 76c8 a739
00000210: b739 193c f1c6 6b3a d0d8 033d bc3e 6ebb
00000220: 1e69 c23d 3ff3 853d 2fc8 4bbc b93a 493d
00000230: 32bd 183c e528 80ba d519 4c3d e8e3 663b
00000240: 39b5 10bd 9600 243d da86 3c3d c6b6 6bbb
00000250: 1996 01b7 00a5 a73c b378 c7bd 8aae a9bd
00000260: 9c33 1abc efb6 52bd 1ebd 06bd 0616 053a
00000270: ee49 9dbd 27d1 283c f5e9 fabb ead8 ebbc
00000280: 4341 88bc afb2 afbc 4559 fb3b 3f84 f23c
00000290: 46da 1ebc 9af9 51bc da23 203d 772b 97bc
000002a0: b7b0 893c b45c 093d db29 2c3d c703 56bd
000002b0: a269 1cbd a678 0c3a f243 a53c a7c1 bfba
000002c0: 6f45 7a3d 46c8 923c 0474 803d 8fcc fc3c
000002d0: f83a 3f3d 03e7 e7bb cbdc 34bc 246d ad3c
000002e0: 57f7 99bc 5efc 87bd b263 073c bdeb c6bc
000002f0: ead4 15bd 2e15 5b3b 326a be3c 8d95 32bd
00000300: c38d 093d 0477 943b b571 bcbc 0b0d 113d
00000310: 0aa5 c0bb 82bf 7dbb d3a4 223d 31f7 1a3d
00000320: 3cd3 31bc c58c 9d3d afd2 b9bc f489 34bd
00000330: 6c0f 633d acb1 b7bc f96e 9fbd e41f f3bc
00000340: 0f80 563b 212b 00bd bbc0 75bc 6929 a5bc
00000350: a641 ba3c 96f9 53bd 1eff 47bd 9f34 74bd
00000360: 39c0 003d 2f88 153d e73d 743c 0745 e83c
00000370: 962a 853c 0d67 733d 7831 9cbb 158a 9ebc
00000380: 2e84 9ebd e7b0 e8bc 0901 7f3c b3e2 6cbd
00000390: d31d 963c 74f9 973c 62d5 8b3d edd0 653b
000003a0: 36a4 a43d c79a 9f3d cb5a 3e3c d4cc 1d3d
000003b0: e60c 81bc 4e20 cb3c 4d91 8b3c ba7a 333d
000003c0: 4cea d43c 2dff 1c3d c45a 553d f5f6 01bd
000003d0: 55f3 8e3a 3619 bdbb 2098 c53c 7e58 5dbd
000003e0: eeaf 11bb 6706 653d 994b 103d a83d 853d
000003f0: 06fc 023d 5336 59bd 3dcd dbbc eedd 49bc

dconv_down2.0.bias f4 [64]
-0.03290367 -0.040776934 0.013337659 0.026538743 0.08972016 0.009215377 0.07942268 0.002135645
-0.12479321 0.09472901 0.017026475 0.0791426 -0.025205424 -0.056743756 0.09928378 -0.08997747
-8.9294014e-07 -0.06419985 0.014568202 0.026234748 0.047915 -0.049483947 3.6632236e-37 0.03962326
-0.038328927 -1.2871085e-20 -0.003499457 -0.053513445 -0.021401618 -0.0017564136 0.027446533 -0.011648926
-2.1425337e-11 0.0037395828 0.06670727 -0.042565033 -0.0035234448 0.017970525 -1.3538e-41 -0.0009582917
-0.021041093 0.039344907 0.006763029 -0.0030200381 -0.001835723 0.0022432986 -2.7821027e-06 0.021368729
0.007357833 -0.018436197 0.102264956 -0.004544939 -6.290422e-05 -0.0009516426 -0.0031391652 0.037835684
-0.024025505 0.016808165 -0.025491904 0.014817391 -0.02314744 -0.023417942 -0.017404629 -0.06394554
00000000: 00c6 06bd b705 27bd 3286 5a3c c767 d93c
00000010: 34bf b73d 18fc 163c 5ca8 a23d 2df6 0b3b
00000020: 9593 ffbd 4801 c23d 1b7b 8b3c 8415 a23d
00000030: 9b7b cebc 246c 68bd 4b55 cb3d 1c46 b8bd
00000040: 61b2 6fb5 367b 83bd 78af 6e3c 41ea d63c
00000050: 8542 443d aeaf 4abd 5b4e f902 004c 223d
00000060: cbfe 1cbd bf20 739e 2557 65bb ea30 5bbd
00000070: 7252 afbc 7637 e6ba 8dd7 e03c 23db 3ebc
00000080: 9275 bcad ca13 753b d29d 883d ac58 2ebd
00000090: 98e9 66bb ec36 933c bd25 0080 de35 7bba
000000a0: 5f5e acbc 2028 213d 669c dd3b d5eb 45bb
000000b0: a49c f0ba 4e04 133b 29b4 3ab6 790d af3c
000000c0: fa19 f13b 8207 97bc 4a70 d13d b6ed 94bb
000000d0: 72eb 83b8 a777 79ba 74ba 4dbb 97f9 1a3d
000000e0: 23d1 c4bc 47b1 893c 66d4 d0bc a4c4 723c
000000f0: b39f bdbc fcd6 bfbc 2794 8ebc e1f5 82bd

dconv_down3.0.weight f4 [64, 64, 3, 3]
-0.035773423 -0.052758597 -0.020996796 0.022903316 -0.029141184 -0.023195151 0.039122887 -0.041503392
0.006533152 0.012250369 -0.006195255 0.029004956 0.026345389 0.036689207 -0.0048799617 -0.06315404
-0.028533703 -0.009563245 -0.029531104 0.039734896 0.051225465 -0.059390403 -0.02048619 0.03191462
0.03608415 0.019291103 -0.008180911 0.028154235 -0.05154359 0.00069518207 -0.022316825 -0.020989442
0.02550976 0.0020519611 0.029093115 -0.0014058446 -0.0039451644 0.04978738 -0.020287931 0.052651808
0.028793257 -0.018006375 0.033426236 0.00833753 0.0013832451 0.045784913 0.020297991 0.03204934
-0.033876594 -0.012476537 0.02008921 -0.02414571 0.08632319 0.015826436 0.004632611 -0.014856
0.011678276 -0.007063781 -0.015280791 0.008645858 -0.037090156 0.008042506 -0.025126241 -0.026708946
-0.024780003 -0.03517258 0.045418844 -0.011284753 -0.024255907 -0.0015971318 -0.033398136 -0.060928144
-0.050020594 -0.012566005 -0.012099349 -0.02077802 0.05235917 0.055306654 0.026648678 0.044625133
0.052631773 0.019500606 0.019238386 0.008574841 -0.0037757047 0.04595051 -0.0025056312 -0.025802488
0.008013081 -0.019286755 0.014875552 -0.0041760495 -0.03549649 -0.02034432 -0.016322793 -0.0047073383
0.08390056 -0.008160226 -0.00459467 0.03274002 -0.016450485 -0.046834007 -0.047298454 0.03063396
0.07592961 0.078230344 -0.03776559 0.04786847 0.042370986 0.01854435 -0.0004414069 0.017113527
-0.045906365 -0.119863614 -0.01735488 0.005801579 -0.042525455 -0.07715104 -0.06766452 -0.019646263
-0.019052034 -0.052655008 -0.05135816 0.061800737 -0.05885738 -0.04267445 0.034986917 0.07494034
0.007336877 -0.04988508 -0.010832663 -0.045819607 0.009642139 0.0309501 -0.04452621 0.0089642275
-0.06342958 0.0071544717 0.035231337 0.012335855 0.0013565362 0.014213394 -0.08691886 -0.004453253
0.003237011 0.00048678942 0.0010737603 0.0029742336 0.00088308554 0.0015644225 0.0036620903 0.00027130806
0.0012717276 0.004289599 -0.019118322 -0.013524098 0.0036065914 -0.011071786 0.01029025 -0.021838142
-0.019854262 0.0084437225 -0.04899635 -0.006404383 0.061923504 -0.023560902 0.032386355 0.024477955
-0.03700544 0.020864064 0.020142313 0.019230751 0.02933975 -0.045708217 0.056190442 -0.0070566842
0.008902694 0.03622548 -0.010827164 0.00026817355 -0.010247925 -0.013395454 0.015189867 0.008292876
-0.045916174 -0.013931588 0.032141093 -0.0020297149 -0.007303132 0.01960725 0.0030732506 -0.01000532
-0.0002729821 0.060448848 -0.03444009 -0.005739293 -0.0070300177 -0.07311043 3.3986393e-30 5.28603e-14
5.905546e-10 6.710535e-16 1.0712286e-08 8.3519956e-07 8.361104e-28 4.9537728e-11 1.9875522e-07 0.0081505105
-0.0018349492 0.042120963 0.024675688 -0.0016556224 0.027483545 0.034251582 -0.03442631 0.03781327
-0.0037462045 -0.03706094 0.040590044 -0.0363927 -0.067855895 -0.015869021 -0.038390726 0.05214054
-0.040688258 -3.4343097e-23 -1.7973967e-13 -9.8838066e-14 3.4222777e-27 -8.858918e-16 -1.0849667e-17 2.9773963e-30
6.794569e-31 -3.5314623e-30 0.0037377002 0.006272638 0.023788366 0.020573076 -0.01776758 0.005275448
-0.013100392 0.00016822312 0.012562563 0.0012716615 -0.08002364 -0.021347992 0.011420516 -0.045234438
0.017825102 0.039352294 0.07674507 0.06050754 0.006706825 -0.0242134 0.058688994 0.009064373
00000000: 2787 12bd 6619 58bd 7901 acbc bc9f bb3c
00000010: 7eb9 eebc c203 bebc 523f 203d 76ff 29bd
00000020: 0d14 d63b c6b5 483c 9101 cbbb cd9b ed3c
00000030: 49d2 d73c 6c47 163d 16e8 9fbb e856 81bd
00000040: 83bf e9bc 28af 1cbc 37eb f1bc 0fc1 223d
00000050: cbd1 513d 5a43 73bd a8d2 a7bc e8b8 023d
00000060: f9cc 133d 6008 9e3c 3a09 06bc b6a3 e63c
00000070: 5f1f 53bd e13c 363a c6d1 b6bc 0df2 abbc
00000080: d8f9 d03c 327a 063b af54 ee3c 5144 b8ba
00000090: 7046 81bb daed 4b3d e032 a6bc 6ca9 573d
000000a0: d6df eb3c 1b82 93bc f3e9 083d 239a 083c
000000b0: 014e b53a f688 3b3d f947 a63c 2b46 033d
000000c0: 2fc2 0abd 646a 4cbc 2092 a43c 39cd c5bc
000000d0: 36ca b03d 71a6 813c 28cd 973b 9566 73bc
000000e0: 3d56 3f3c 4a77 e7bb 485c 7abc 5ba7 0d3c
000000f0: d9eb 17bd b7c4 033c 8cd5 cdbc b8cc dabc
00000100: 6fff cabc 2011 10bd 1c09 3a3d afe3 38bc
00000110: 53b4 c6bc da56 d1ba 7ccc 08bd ca8f 79bd
00000120: 65e2 4cbd a5e1 4dbc 593c 46bc ab36 aabc
00000130: 9276 563d 3b89 623d 544e da3c d8c8 363d
00000140: 6a94 573d bcbf 9f3c d299 9d3c 7d7d 0c3c
00000150: d071 77bb 9a36 3c3d 8435 24bb bd5f d3bc
00000160: 4c49 033c 42ff 9dbc 96b8 733c 3ed7 88bb
00000170: c464 11bd 22a9 a6bc 61b7 85bc 0440 9abb
00000180: 0fd4 ab3d 78b2 05bc e38e 96bb 661a 063d
00000190: 2bc3 86bc 04d5 3fbd 06bc 41bd 12f4 fa3c
000001a0: fc80 9b3d 3b37 a03d 17b0 1abd bb11 443d
000001b0: 338d 2d3d 52ea 973c a26c e7b9 ab31 8c3c
000001c0: 5008 3cbd 0e7b f5bd d22b 8ebc 2c1b be3b
000001d0: 2c2f 2ebd 5d01 9ebd b293 8abd 33f1 a0bc
000001e0: 0313 9cbc c7ac 57bd ef5c 52bd c522 7d3d
000001f0: 7014 71bd 67cb 2ebd 714e 0f3d 527a 993d
00000200: 2f6a f03b 4c54 4cbd 7b7b 31bc 57ad 3bbd
00000210: 10fa 1d3c 108b fd3c 1d61 36bd b2de 123c
00000220: 5ee7 81bd 0f70 ea3b bc4e 103d 531c 4a3c
00000230: cdcd b13a 4cdf 683c 8402 b2bd 98ec 91bb
00000240: 0824 543b c537 ff39 6bbd 8c3a 5ceb 423b
00000250: de7e 673a 4f0d cd3a aeff 6f3b 5a3e 8e39
00000260: 19b0 a63a c48f 8c3b 079e 9cbc 2e94 5dbc
00000270: 905c 6c3b 7066 35bc 7098 283c e7e5 b2bc
00000280: 68a5 a2bc 8a57 0a3c 66b0 48bd dcdb d1bb
00000290: 80a3 7d3d cb02 c1bc 8ea7 043d fe85 c83c
000002a0: 0493 17bd 1deb aa3c 7e01 a53c cf89 9d3c
000002b0: ea59 f03c 8a38 3bbd f327 663d c23b e7bb
000002c0: 9bdc 113c 2b61 143d 6b64 31bc a599 8c39
000002d0: eae6 27bc 9b78 5bbc ebde 783c d8de 073c
000002e0: 9912 3cbd 5141 64bc 61a6 033d f704 05bb
000002f0: 1d4f efbb 629f a03c 9768 493b 5bed 23bc
00000300: 0a1f 8fb9 3699 773d 0d11 0dbd ae10 bcbb
00000310: 105c e6bb ecba 95bd 7ddd 890e c70f 6e29
00000320: 9654 2230 026b 4126 2209 3832 7a32 6035
00000330: ab7c 8412 86de 592e 6b69 5534 b889 053c
00000340: ae82 f0ba 0887 2c3d ab24 ca3c 7801 d9ba
00000350: 2c25 e13c 634b 0c3d 9a02 0dbd 16e2 1a3d
00000360: e282 75bb 36cd 17bd bf41 263d 8310 15bd
00000370: 08f8 8abd c0ff 81bc 983f 1dbd 5291 553d
00000380: bba8 26bd b212 269a 6f5e 4aaa 4490 dea9
00000390: 0592 8713 4757 7fa6 1b24 48a3 1a8e 710e
000003a0: 127f 5c0d cd40 8f8e 34f4 743b b48a cd3b
000003b0: d2df c23c de88 a83c 518d 91bc aadd ac3b
000003c0: 07a3 56bc 0d65 3039 35d3 4d3c e1ad a63a
000003d0: 6fe3 a3bd fce1 aebc 1e1d 3b3c bf47 39bd
000003e0: f305 923c df2f 213d 852c 9d3d c1d6 773d
000003f0: edc4 db3b 2e5b c6bc df63 703d bc82 143c

dconv_down3.0.bias f4 [64]
0.08554945 -0.0066593965 0.026968371 0.060641054 0.030197583 0.059361376 0.079737976 -0.033565518
-0.008316661 0.014441091 0.049307838 -0.026855808 0.0028057408 0.04701532 -0.051167488 -0.082654364
-0.14650737 0.034956146 -0.0037739726 0.04300082 -0.010984635 -0.089477524 0.026227506 -0.023741947
0.071764484 0.053242266 0.08380539 -0.026947957 0.040420976 0.039110553 0.0030107268 -0.030012019
-0.0034604913 -0.046248723 -0.13410464 -0.110249065 -0.0099166315 0.0048530544 0.008785283 -0.067803234
0.03880053 0.027668558 -0.07088988 0.018305408 -0.039894596 -0.0020378798 0.027426178 0.044169236
0.06322224 0.012337541 0.08086909 0.048562557 -0.03032668 0.058230333 -0.066816 0.039035298
-0.0846773 0.013873075 -0.09526512 -0.04735993 0.030929709 0.06718703 -0.010991695 -0.0046729813
00000000: 8d34 af3d 1137 dabb c6ec dc3c c162 783d
00000010: ec60 f73c ea24 733d aa4d a33d ff7b 09bd
00000020: 9b42 08bc 539a 6c3c 04f7 493d b600 dcbc
00000030: 85e0 373b 2393 403d 0095 51bd b146 a9bd
00000040: 0706 16be 2d2e 0f3d c154 77bb a121 303d
00000050: e6f8 33bc fe3f b7bd 11db d63c 797e c2bc
00000060: 42f9 923d 9014 5a3d 29a2 ab3d f6c1 dcbc
00000070: 7790 253d 6332 203d 9d4f 453b c4db f5bc
00000080: 69c9 62bb 4d6f 3dbd ba52 09be 43ca e1bd
00000090: 5e79 22bc 5f06 9f3b 26f0 0f3c 6cdc 8abd
000000a0: 4eed 1e3d 2ca9 e23c b72e 91bd 39f5 953c
000000b0: 8468 23bd f38d 05bb ddac e03c cdea 343d
000000c0: a97a 813d 6623 4a3c b29e a53d 88e9 463d
000000d0: a86f f8bc ee82 6e3d d4d6 88bd 7ae3 1f3d
000000e0: 4b6b adbd e54b 633c 5c1a c3bd 7cfc 41bd
000000f0: 4d60 fd3c 5b99 893d 8316 34bc cf1f 99bb

conv_last.weight f4 [64, 64, 3, 3]
-0.013266286 0.017871227 -0.0014402693 -0.0055352133 0.0012430088 -0.0013718191 0.033831622 -0.004801777
0.00023277353 0.007057334 0.0144995935 0.03161745 -0.011980294 0.01842469 0.03811844 0.002837819
0.0008717327 0.0073247594 -0.028337728 -0.021500781 -0.016083525 -0.03581722 0.013047471 0.03241973
-0.02031276 -0.014608792 0.0077403584 0.03177956 0.017957617 0.007908012 0.037387352 -0.0034501634
-0.0024994405 0.008954688 -0.022479286 -0.01612019 0.01354379 0.008060252 0.010146529 -0.012458881
0.01674282 0.010433019 -0.015660832 -0.011693849 -0.012787624 -0.012580349 -0.027756322 -0.00045027942
0.0354285 0.0013466239 -0.0005274553 -0.01803975 -0.025303999 -0.019320695 -0.0095884735 0.0107996
0.0030679766 -0.018556442 -0.001473014 0.0058127637 -0.02611056 -0.03258534 -0.01918559 -0.0071577798
0.0031895987 0.0012443307 -0.046458956 0.017119424 -0.0020968905 0.008541647 0.010016121 -0.00954311
0.0015305007 -0.01395768 0.010726967 0.0052546184 0.01147404 -0.022511574 0.0036710296 0.016952474
0.0011048019 0.002030498 -0.016041096 -0.00015993752 -0.027434697 -0.018556148 -0.0070069884 -0.010258418
-0.023886632 0.00086121773 0.006829927 -0.018304724 -0.004928863 0.009876696 -0.012095655 0.015657429
0.010742839 -0.00022635875 -0.009581822 0.0010723617 -0.037901238 -0.0014946942 -0.026971389 -0.007362277
-0.0018651872 -0.012861254 -0.0021040833 -0.005650085 0.034310862 0.009870309 -0.0237124 -0.008833376
-0.0037111344 -0.014593597 0.015693016 -0.014225969 -0.0067976583 -0.026900142 0.019043885 0.023010464
-0.008010475 -0.010160169 -0.004050782 -0.012654988 0.0015688415 0.018481482 -0.009347465 -0.0036169721
0.024484655 0.0012585119 -0.011353101 -0.0026631742 -0.0137604205 -0.023963701 0.015265337 -0.013740105
-0.000929938 0.00012273891 -0.021398585 -0.006443304 0.014474007 0.011762569 -0.011827341 0.015820935
0.007851266 -0.001372692 -0.016275072 -0.01895627 -0.026525382 0.0010400221 -0.0018273967 -0.0062563024
0.005717769 -0.028989078 0.023002375 0.025564076 -0.004986944 -0.0074065966 0.0075508105 -0.02688879
-0.027061827 -0.0028880853 -0.0041188677 -0.013053658 0.0005077516 -0.0027976015 -0.0010642228 0.008112805
0.013162982 0.05319343 -0.0101053035 0.026064826 0.013707252 0.0128760515 0.009744631 -0.012568115
-0.0059991837 -0.031336814 0.023958666 -0.0006030198 -0.011870945 -0.013105093 0.0074422634 0.04098961
0.011025599 0.016162116 -0.00017759754 -0.018935736 0.0029181342 -0.005352317 -0.007676852 -0.0019321862
-0.015189204 -0.0024730668 -0.008169595 0.0069696303 0.018974887 -0.023324925 -0.0071796984 -0.030583126
-0.030889634 0.05110037 -0.001947745 -0.017801136 0.028098762 0.029649952 -0.0080546085 0.010750391
0.0052066245 0.0027820773 -0.0021733465 -0.042623978 0.0023685067 -0.016669547 -0.02300016 0.009872064
0.0435527 0.015935984 -0.015050128 -0.016818756 -0.039411344 -0.00982969 -0.039029505 0.00014914584
-0.0023238354 -0.00393532 0.026032364 0.0039982814 -0.00994906 0.014342154 -0.006825395 0.012256512
-0.0048329956 0.013182442 -0.033857126 -0.008847067 0.018294767 0.026992986 0.026271217 0.0125719
0.0066735283 0.017277038 0.0044213803 -0.0013313484 -0.0039583286 -0.013469288 0.032473546 -0.037286494
-0.0040000877 -0.005020108 -0.01447732 0.010058009 0.011131474 -0.01943696 -0.023633117 -0.011940707
00000000: d65a 59bc ae66 923c 6bc7 bcba bc60 b5bb
00000010: 74ec a23a 9cce b3ba 0793 0a3d 3a58 9dbb
00000020: ab14 7439 3541 e73b b48f 6d3c 4d81 013d
00000030: ff48 44bc 60ef 963c 1522 1c3d b4fa 393b
00000040: fe84 643a 8904 f03b 8624 e8bc 6822 b0bc
00000050: 99c1 83bc 14b5 12bd 0fc5 553c 8dca 043d
00000060: f266 a6bc b759 6fbc d5a2 fd3b 492b 023d
00000070: da1b 933c 9b90 013c 7b23 193d 231c 62bb
00000080: a7cd 23bb afb6 123c 7b26 b8bc 7d0e 84bc
00000090: c6e6 5d3c 260f 043c a13d 263c 5620 4cbc
000000a0: 3d28 893c 41ef 2a3c 254b 80bc 8f97 3fbc
000000b0: 2f83 51bc cf1d 4ebc 3a61 e3bc 7b13 ecb9
000000c0: 7a1d 113d 3381 b03a ed44 0aba 19c8 93bc
000000d0: 554a cfbc 6f46 9ebc f918 1dbc cef0 303c
000000e0: 1b10 493b ae03 98bc 2612 c1ba ff78 be3b
000000f0: d0e5 d5bc 3578 05bd 192b 9dbc cf8b eabb
00000100: 9608 513b cf18 a33a bf4b 3ebd 093e 8c3c
00000110: fc6b 09bb 44f2 0b3c a81a 243c b45a 1cbc
00000120: 159b c83a c1ae 64bc 29c0 2f3c ef2e ac3b
00000130: 9dfd 3b3c 316a b8bc a895 703b eadf 8a3c
00000140: 00cf 903a 1b12 053b 9e68 83bc e7b4 27b9
00000150: bbbe e0bc 1003 98bc e19a e5bb ec12 28bc
00000160: e6ad c3bc 58c3 613a 95cd df3b caf3 95bc
00000170: 4d82 a1bb ded1 213c db2c 46bc 0244 803c
00000180: bc02 303c b75a 6db9 13fd 1cbc 7d8e 8c3a
00000190: 543e 1bbd 9de9 c3ba 1af3 dcbc 413f f1bb
000001a0: 4c79 f4ba 02b8 52bc a9e4 09bb 5924 b9bb
000001b0: 8c89 0c3d 14b7 213c 8240 c2bc ddb9 10bc
000001c0: 8136 73bb fb19 6fbc a48e 803c 0a14 69bc
000001d0: e4be debb b05d dcbc ec01 9c3c 7180 bc3c
000001e0: 5e3e 03bc d676 26bc 6cbc 84bb de56 4fbc
000001f0: 96a1 cd3a 7a66 973c 1c26 19bc b90a 6dbb
00000200: 0b94 c83c a7f4 a43a 5b02 3abc a688 2ebb
00000210: 6373 61bc 864f c4bc 771b 7a3c 2d1e 61bc
00000220: 15c7 73ba 7ab3 0039 164c afbc 5a22 d3bb
00000230: 6324 6d3c cab7 403c 77c7 41bc e89a 813c
00000240: 99a2 003c e6eb b3ba 4d53 85bc 2e4a 9bbc
00000250: c24b d9bc 5a51 883a 4285 efba ab01 cdbb
00000260: 1f5c bb3b 817a edbc 7a6f bc3c c16b d13c
00000270: 8569 a3bb 09b3 f2bb ca6c f73b e145 dcbc
00000280: c4b0 ddbc 0846 3dbb 91f7 86bb 03df 55bc
00000290: a21a 053a f757 37bb 647d 8bba 92eb 043c
000002a0: 8ca9 573c 5be1 593d b790 25bc e785 d53c
000002b0: 6294 603c 13f6 523c f2a7 1f3c 7fea 4dbc
000002c0: cd94 c4bb 085b 00bd f744 c43c f913 1eba
000002d0: 5a7e 42bc beb6 56bc 3bde f33b b9e4 273d
000002e0: b7a4 343c 6a66 843c 7a39 3ab9 1e1f 9bbc
000002f0: 2b3e 3f3b 7d62 afbb 1a8e fbbb 6941 fdba
00000300: 24dc 78bc 2d13 22bb c4d9 05bc 7f61 e43b
00000310: 3971 9b3c ea13 bfbc ad43 ebbb 7789 fabc
00000320: 420c fdbc 9f4e 513d 7a4b ffba b0d3 91bc
00000330: 602f e63c 75e4 f23c 7af7 03bc 6822 303c
00000340: 559c aa3b 8353 363b b46e 0ebb 7b96 2ebd
00000350: f338 1b3b 938e 88bc d56a bcbc 70be 213c
00000360: 5164 323d 2e8c 823c d094 76bc 7dc7 89bc
00000370: ca6d 21bd b50c 21bc 67dd 1fbd 0864 1c39
00000380: 7d4b 18bb dbf3 80bb d341 d53c 0404 833b
00000390: 6201 23bc 5bfb 6a3c 90a7 dfbb 8acf 483c
000003a0: 1b5e 9ebb 2bfb 573c c5ad 0abd 4af3 10bc
000003b0: e8de 953c 6520 dd3c bc36 d73c 5ffa 4d3c
000003c0: 9dad da3b 9388 8d3c 3ae1 903b a480 aeba
000003d0: deb4 81bb 4aae 5cbc fb02 053d b9b9 18bd
000003e0: 2b13 83bb b87f a4bb 4832 6dbc 59ca 243c
000003f0: c960 363c 423a 9fbc 3d9a c1bc f5a2 43bc

conv_last.bias f4 [64]
-0.004235032 -0.011854755 -0.03530352 0.0063186726 -0.028198425 0.024961716 -0.029741257 -0.015605591
0.027146183 -0.042956363 0.013929041 -0.0287437 0.008940421 0.003638052 0.0110788485 -0.030771956
0.00156382 0.022780549 -0.024604652 0.0036502022 0.035862524 -0.021944959 -0.018481744 0.030300766
-0.026875079 -0.0025558982 -0.033050466 0.0015222994 -0.017878657 -0.007612898 -0.007275702 -0.036010362
-0.026027024 0.006952569 -0.008984619 -0.011527269 0.0013558534 0.021447048 0.03336958 -0.0077750646
-0.038360197 -0.009493114 -0.0055685495 -0.033814453 -0.007448775 -0.013926138 -0.0064479634 0.020485679
0.04726749 -0.013658425 -0.0015334483 0.017296247 0.013336767 0.023432216 0.00033495142 -0.027664967
-0.0036402366 -0.0057151658 0.014450918 -0.018781584 -0.0142936865 -0.009763659 -0.0015890956 0.0066450275
00000000: 06c6 8abb 723a 42bc 6c9a 10bd de0c cf3b
00000010: 6200 e7bc 837c cc3c f0a3 f3bc 98ae 7fbc
00000020: ac61 de3c 03f3 2fbd a236 643c e877 ebbc
00000030: d87a 123c 626c 6e3b 0f84 353c 7815 fcbc
00000040: 18f9 cc3a 469e ba3c b28f c9bc 3b38 6f3b
00000050: 95e4 123d eac5 b3bc 0767 97bc 5039 f83c
00000060: 2029 dcbc db80 27bb ed5f 07bd e487 c73a
00000070: 4376 92bc 9e75 f9bb 0369 eebb 9a7f 13bd
00000080: a036 d5bc 60d2 e33b 3934 13bc dfdc 3cbc
00000090: e4b6 b13a b8b1 af3c 8aae 083d f8c5 febb
000000a0: 951f 1dbd 0289 1bbc 6178 b6bb 0681 0abd
000000b0: db14 f4bb 752a 64bc 7049 d3bb 95d1 a73c
000000c0: 8e9b 413d 96c7 5fbc fdfd c8ba dcb0 8d3c
000000d0: 7582 5a3c ebf4 bf3c 6b9c af39 a4a1 e2bc
000000e0: 0991 6ebb 4946 bbbb 8bc3 6c3c d6db 99bc
000000f0: 1130 6abc c1f7 1fbc 3349 d0ba 88be d93b
